log/GNN_residential_choice_GAT_2026-01-01_09-56-38.pth (torch, 83945 bytes, 13 tensors)

in_layer.weight f4 [64, 13]
-0.20516036 0.51322085 -0.18833981 -0.5619064 0.29089153 0.2889759 -0.07385321 -0.51541454
-0.4781271 -0.20328294 -0.41681248 0.42792916 0.3106065 0.27826673 -0.030440483 0.16793233
0.20925741 0.20036124 -0.24947399 -0.102673136 -0.36911678 0.31237808 -0.06204672 0.5021054
0.26918957 0.7984466 0.16175058 0.09361873 -0.2455618 0.5374221 0.0799101 -0.09606198
0.11953802 -0.39059728 -0.4659305 -0.19138944 0.47006446 0.43605334 0.13737883 0.278175
-0.1441854 -0.07267225 -0.57764 -0.060314246 -0.107813865 0.041828334 -0.5840088 -0.10701672
0.15542914 -0.1869657 0.26665393 0.0673288 0.08711738 -0.30251703 0.03080226 0.008420388
-0.048613954 -0.2915499 0.17189512 0.29807642 -0.17775105 0.023250822 0.09601576 0.4163161
0.66226184 0.21003568 0.219366 0.24434145 -1.0283633 -0.1644747 0.16794458 0.22340974
-0.47814137 0.2526449 -0.22956465 -0.3219801 0.6743032 0.31477627 -0.038597886 -0.095036544
-0.14198938 0.6130027 -0.10723814 -0.21654768 0.26597974 -0.26976952 -0.45894584 0.30529928
0.297292 -0.25383502 -0.34918264 -0.24406694 0.28056136 -0.05627146 -0.5325043 -0.11508045
-0.09594829 0.22252296 -0.66598266 -0.61209124 0.059518076 -0.031106422 -0.09581621 -0.3749008
-0.33817568 0.13834673 -0.31742632 1.2817428 0.21129529 0.08936506 -0.32999456 -0.39695105
0.09156495 0.08724031 0.42720142 0.3170633 -0.015227407 0.3633297 -0.008543448 -0.1573088
-0.65668905 0.31464505 0.042336863 0.11983148 -0.13762188 -0.1479986 -0.06932043 -0.034059733
-0.12785447 0.48982432 -0.34339073 -0.45360488 -0.038106203 -0.2667506 -0.2516312 0.20556329
0.24492495 -0.21403886 -0.24567184 0.1608607 0.5471791 0.41418493 -0.2770486 -0.16347405
0.18748452 -0.035131276 -0.007824416 0.030337386 0.433065 -0.21186946 -0.1639132 -0.042199377
-0.020427631 -0.08231538 -0.32392165 -0.3565569 0.15982339 0.032927644 0.37919718 0.10950555
-0.095878206 0.2476129 0.15342557 -0.57213897 -0.44186386 -0.111791246 0.40261778 -0.08915314
-0.15346257 -0.17896104 0.5816613 -0.024528757 -0.07936232 0.40107936 -0.13793549 -0.27135158
0.029375773 0.51797724 -0.02630935 -0.27700752 -0.1381269 -0.3828314 0.32324064 0.031250928
0.1409275 -1.1416836 -0.18306486 -0.11342801 0.35675517 -0.45957887 0.23587176 -0.13703942
-0.27186242 0.030357143 -0.24735373 -0.06230463 -0.16134787 -0.24355596 0.60007274 0.17454939
0.034464575 0.107723184 -0.057808228 -0.1775577 -0.027907599 0.341297 -0.2225262 0.05168155
0.113781236 -0.12746444 -0.29374406 -0.51912934 -0.04555198 0.08247338 0.032983746 -0.3596131
0.7193435 -0.052964903 0.24990277 0.3003684 0.63543767 -0.15649821 -0.19198647 0.37501404
-1.0889285 0.15974341 -0.09435143 0.20311709 -0.65900326 -0.11717147 -0.04816507 -0.6252324
0.14705467 -0.31052318 -0.001686672 -0.3948158 -0.062043548 1.0369201 -0.35129973 -0.2038364
-0.4161218 -0.013366118 -0.40029794 0.2716151 -0.033358462 0.3390505 -0.06403108 -0.17258409
-0.28114876 -0.044776563 -0.27390632 0.06494473 -0.1794855 0.34683082 -0.023905402 0.3049968
00000000: 8f15 52be 7162 033f 27dc 40be 19d9 0fbf
00000010: bcef 943e a6f4 933e 5a40 97bd 35f2 03bf
00000020: 13cd f4be 6729 50be 7268 d5be 8819 db3e
00000030: d107 9f3e fa78 8e3e 525e f9bc 74f6 2b3e
00000040: 9347 563e 7f2b 4d3e 1c76 7fbe 4b46 d2bd
00000050: e0fc bcbe 05f0 9f3e b424 7ebd fb89 003f
00000060: 37d3 893e ff66 4c3f f2a1 253e 2dbb bf3d
00000070: 8d74 7bbe 7f94 093f e8a7 a33d 25bc c4bd
00000080: 59d0 f43d 5efc c7be 718e eebe 98fb 43be
00000090: 4aac f03e 6242 df3e 09ad 0c3e f46c 8e3e
000000a0: 56a5 13be 30d5 94bd 37e0 13bf 120c 77bd
000000b0: 84cd dcbd 3054 2b3d 9a81 15bf 952b dbbd
000000c0: d128 1f3e f073 3fbe dd86 883e afe3 893d
000000d0: 996a b23d 83e3 9abe 0555 fc3c abf5 093c
000000e0: 6d1f 47bd 0746 95be 4605 303e 799d 983e
000000f0: 5f04 36be 8278 be3c e9a3 c43d 6227 d53e
00000100: fe89 293f 9813 573e 7ba1 603e a534 7a3e
00000110: 69a1 83bf 0e6c 28be aaf9 2b3e 86c5 643e
00000120: f2ce f4be ac5a 813e ff12 6bbe 93da a4be
00000130: 229f 2c3f 5b2a a13e d118 1ebd 85a2 c2bd
00000140: aa65 11be bfed 1c3f ac9f dbbd adbe 5dbe
00000150: 7f2e 883e 3b1f 8abe f3fa eabe 3050 9c3e
00000160: a836 983e aaf6 81be 11c8 b2be afec 79be
00000170: bda5 8f3e e77c 66bd 3452 08bf 4daf ebbd
00000180: 8980 c4bd 0fdd 633e d77d 2abf 03b2 1cbf
00000190: 3ac9 733d e5d2 febc 4a3b c4bd fff2 bfbe
000001a0: 5d25 adbe c4aa 0d3e b485 a2be 2610 a43f
000001b0: cb5d 583e 0705 b73d 0cf5 a8be 2b3d cbbe
000001c0: 6886 bb3d 0cab b23d 25ba da3e 1f56 a23e
000001d0: 607c 79bc 5a06 ba3e d1f9 0bbc 8f15 21be
000001e0: c61c 28bf 2819 a13e 6b69 2d3d 356a f53d
000001f0: c0ec 0cbe f28c 17be dff7 8dbd 3882 0bbd
00000200: 48ec 02be 41ca fa3e e9d0 afbe e63e e8be
00000210: 4015 1cbd 8993 88be ced5 80be 2f7f 523e
00000220: 9bcd 7a3e 012d 5bbe 6691 7bbe abb8 243e
00000230: ee13 0c3f 0c10 d43e 50d9 8dbe be65 27be
00000240: f1fb 3f3e d0e5 0fbd fb31 00bc 1c86 f83c
00000250: b2ba dd3e 4ff4 58be ddd8 27be 41d9 2cbd
00000260: d957 a7bc f794 a8bd 0fd9 a5be a08e b6be
00000270: bea8 233e 23df 063d 2226 c23e 7244 e03d
00000280: cb5b c4bd 3c8e 7d3e 981b 1d3e b377 12bf
00000290: fb3b e2be cff2 e4bd eb23 ce3e ec95 b6bd
000002a0: 4b25 1dbe 9041 37be c1e7 143f 88f0 c8bc
000002b0: b688 a2bd 465a cd3e f63e 0dbe 98ee 8abe
000002c0: 76a5 f03c 289a 043f b586 d7bc eed3 8dbe
000002d0: 2371 0dbe 7a02 c4be cc7f a53e f900 003d
000002e0: 4c4f 103e b022 92bf 5b75 3bbe f24c e8bd
000002f0: 9da8 b63e ec4d ebbe 5e88 713e 1054 0cbe
00000300: 8d31 8bbe 8baf f83c 4c4a 7dbe 2433 7fbd
00000310: 6038 25be bc66 79be 5e9e 193f 13bd 323e
00000320: ba2a 0d3d f99d dc3d 52c8 6cbd b0d1 35be
00000330: 7a9e e4bc 7bbe ae3e e8dd 63be 08b0 533d
00000340: 2306 e93d 0a86 02be 9f65 96be a9e5 04bf
00000350: b794 3abd cee7 a83d f719 073d 351f b8be
00000360: e526 383f baf1 58bd 83e6 7f3e e3c9 993e
00000370: 0bac 223f 1141 20be 1a98 44be d701 c03e
00000380: 0262 8bbf c793 233e 533b c1bd edfd 4f3e
00000390: 70b4 28bf 98f7 efbd bd48 45bd 3b0f 20bf
000003a0: 8095 163e e5fc 9ebe 5213 ddba 4c25 cabe
000003b0: 6021 7ebd ccb9 843f 8fdd b3be 7dba 50be
000003c0: eb0d d5be 90fd 5abc daf3 ccbe 2211 8b3e
000003d0: e2a2 08bd 0798 ad3e ba22 83bd e2b9 30be
000003e0: bbf2 8fbe a167 37bd 733d 8cbe be01 853d
000003f0: 0ccb 37be cf93 b13e 43d5 c3bc 8a28 9c3e

in_layer.bias f4 [64]
0.23897278 0.04426853 0.1872044 -0.11738568 -0.02677462 -0.1635729 0.10068756 0.3918077
0.13449216 -0.22930348 -0.16535117 0.15048715 0.093487754 0.076484844 -0.06991562 0.022780534
-0.11045645 0.08525655 0.25645638 0.07169137 0.080376945 -0.036222167 0.1913749 0.006902781
0.063187346 -0.029018505 -0.2034494 -0.118632354 0.20531015 0.16104059 0.2648865 0.04483685
0.092444174 -0.15461129 0.10022176 0.22116652 0.017702036 0.110470824 -0.34062773 0.120819464
-0.22615264 -0.18595947 0.15409037 0.070988774 -0.13222715 -0.18474978 0.34900606 -0.050623752
-0.019687284 0.012665221 0.2691577 -0.2060887 0.21088132 0.0996929 -0.18848477 -0.12120869
-0.005983879 -0.008873562 -0.24305551 -0.0816376 -0.095567234 -0.117256455 0.13514134 0.009603216
00000000: 48b5 743e eb52 353d 83b2 3f3e e767 f0bd
00000010: 7356 dbbc a87f 27be 4835 ce3d 059b c83e
00000020: 50b8 093e 88ce 6abe d151 29be 4e19 1a3e
00000030: 8276 bf3d 16a4 9c3d ec2f 8fbd 3e9e ba3c
00000040: fe36 e2bd fc9a ae3d 404e 833e edd2 923d
00000050: ab9c a43d b25d 14bd c8f7 433e b930 e23b
00000060: 5e68 813d 37b8 edbc 0a55 50be 85f5 f2bd
00000070: d33c 523e d3e7 243e 349f 873e d8a6 373d
00000080: 5f53 bd3d 6c52 1ebe 1141 cd3d 7a79 623e
00000090: dc03 913c 873e e23d c266 aebe 3270 f73d
000000a0: 8f94 67be 296c 3ebe dec9 1d3e 9062 913d
000000b0: 8e66 07be 0c2f 3dbe ecb0 b23e da5a 4fbd
000000c0: 3a47 a1bc c981 4f3c 0acf 893e eb08 53be
000000d0: 46f1 573e cb2b cc3d 2702 41be 433c f8bd
000000e0: 6a14 c4bb 6b62 11bc 8be3 78be 9d31 a7bd
000000f0: c1b8 c3bd 2724 f0bd 7e62 0a3e cf56 1d3c

gnn.convs.0.att_src f4 [1, 4, 16]
0.017507154 -0.05351596 -0.53912145 -0.017064752 -0.61599714 0.10352102 -0.8358768 0.0773843
-0.021491358 0.43024975 -0.39671403 0.14262064 -0.38368654 0.04442932 0.12305972 0.13887666
0.10099501 0.042250134 0.5100488 -0.4706863 -0.1558959 0.25486764 0.32611808 -0.42048505
-0.009495873 0.44079205 -0.795914 -0.95913124 -0.085537836 -0.5364475 0.80197453 0.1900178
-0.024419066 -0.36654058 0.35898614 0.21583627 -0.40936276 0.48960245 -0.72348344 -1.1770138
-0.31915578 0.8804353 -0.049855333 0.096029915 0.20069988 -0.34788573 0.90206414 -0.92405915
-0.13129218 -0.028495321 0.63023394 -0.32305586 0.056046344 -0.84585446 0.21584633 -0.4015415
-0.3856413 -0.34073016 -0.1572019 0.15953709 0.120376505 -0.32366946 -0.5471587 -0.5571815
00000000: 2a6b 8f3c 8d33 5bbd dd03 0abf 61cb 8bbc
00000010: fdb1 1dbf d402 d43d 06fc 55bf a97b 9e3d
00000020: a50e b0bc b249 dc3e 1a1e cbbe 250b 123e
00000030: 9072 c4be 85fb 353d bc06 fc3d af35 0e3e
00000040: 79d6 ce3d 7a0e 2d3d 8f92 023f cbfd f0be
00000050: 2da3 1fbe 037e 823e f3f8 a63e d149 d7be
00000060: 9494 1bbc 7faf e13e 05c1 4bbf a089 75bf
00000070: 762e afbd a054 09bf 344e 4d3f 0794 423e
00000080: 7e0a c8bc 35ab bbbe 08cd b73e 2f04 5d3e
00000090: ff97 d1be 2cad fa3e 3636 39bf 63a8 96bf
000000a0: 6368 a3be 3564 613f 1b35 4cbd 55ab c43d
000000b0: 4584 4d3e 141e b2be aded 663f 248f 6cbf
000000c0: 7571 06be 056f e9bc 0357 213f 9467 a5be
000000d0: da90 653d eb89 58bf d206 5d3e d996 cdbe
000000e0: c772 c5be 2f74 aebe 89f9 20be b15d 233e
000000f0: f587 f63d 01b8 a5be 9812 0cbf 72a3 0ebf

gnn.convs.0.att_dst f4 [1, 4, 16]
0.10017221 0.61644983 0.08090242 -0.7665983 0.11264686 -0.5259328 -0.38225895 0.4258507
-0.00492839 -0.10666124 1.566205 0.55413646 0.3768599 0.15742472 -0.5862214 0.49007297
-0.19405004 -0.5883459 0.33575368 -0.03600307 0.48979682 -0.25353175 -0.86214966 -0.054355424
-0.097561285 -0.36002004 -0.78159106 -0.40476573 0.2868455 0.22641894 -0.5576141 0.61422735
-0.60600364 0.026051093 0.10868268 -0.4689534 0.15406168 -0.117635414 0.57089865 -0.5097135
-0.65470415 -0.60136473 0.07106211 0.9233202 0.45842466 0.82784235 -0.622583 0.36758634
0.83891714 1.0125835 -0.5492323 0.5234556 0.04157826 0.13331382 0.4090898 0.49577844
0.41114166 1.3171387 -1.1729614 0.20331822 0.34573734 -0.29893 0.103253275 0.29620034
00000000: 1627 cd3d a8cf 1d3f 2bb0 a53d c93f 44bf
00000010: 66b3 e63d 88a3 06bf 72b7 c3be 1a09 da3e
00000020: 557e a1bb 3571 dabd 6879 c83f e3db 0d3f
00000030: c8f3 c03e f233 213e 9b12 16bf d8ea fa3e
00000040: 0eb5 46be d69d 16bf e8e7 ab3e f577 13bd
00000050: a6c6 fa3e eace 81be d7b5 5cbf cba3 5ebd
00000060: 36ce c7bd 8c54 b8be 5a16 48bf 743d cfbe
00000070: 6add 923e 5eda 673e ccbf 0ebf 013e 1d3f
00000080: 0e23 1bbf 1a69 d53c 0695 de3d a91a f0be
00000090: 58c2 1d3e d6ea f0bd 6a26 123f 957c 02bf
000000a0: b19a 27bf 0af3 19bf 0389 913d b65e 6c3f
000000b0: a3b6 ea3e 7aed 533f 9961 1fbf 4734 bc3e
000000c0: 46c3 563f 569c 813f 7d9a 0cbf 3001 063f
000000d0: f74d 2a3d 6b83 083e 3874 d13e acd6 fd3e
000000e0: 2981 d23e 0098 a83f 9923 96bf a732 503e
000000f0: 7c04 b13e 5a0d 99be 7476 d33d 92a7 973e

gnn.convs.0.bias f4 [64]
0.07785774 -0.32931295 -0.28237295 0.012200728 -0.2312433 -0.1736979 -0.012142747 -0.19272058
0.036402863 -0.27106312 -0.20461173 0.16454467 -0.40135843 -0.16670579 -0.13474278 -0.07740747
-0.07284014 -0.022096356 -0.11465748 0.08608751 -0.13733628 -0.58043027 -0.48851335 -0.40602764
-0.22566156 -0.1832723 -0.025518557 -0.25544348 -0.08781518 -0.32705098 -0.3973721 -0.20157146
-0.1484539 -0.24243686 0.08085681 -0.07910695 -0.35016194 -0.15958202 -0.1705 0.14337488
-0.22396244 -0.0012150218 -0.330534 0.08589089 -0.082284115 -0.23077926 -0.08233798 0.020822546
0.019419158 -0.42805907 -0.12427198 -0.25848347 0.025454368 -0.0784257 -0.35548162 -0.22863789
-0.3213605 0.025381325 -0.24535343 -0.08053533 -0.2283416 -0.42993805 0.026354013 0.099320464
00000000: e173 9f3d b59b a8be 3093 90be 90e5 473c
00000010: 0bcb 6cbe dddd 31be 5ff2 46bc 8b58 45be
00000020: 2b1b 153d c9c8 8abe bd85 51be 667e 283e
00000030: da7e cdbe ecb4 2abe 03fa 09be cf87 9ebd
00000040: 362d 95bd 6b03 b5bc 8ad1 eabd a64e b03d
00000050: e2a1 0cbe 1497 14bf 6c1e fabe dbe2 cfbe
00000060: d313 67be bcab 3bbe 4b0c d1bc 7dc9 82be
00000070: 72d8 b3bd 3a73 a7be 5b74 cbbe c068 4ebe
00000080: 4d04 18be 5e41 78be 4198 a53d d302 a2bd
00000090: 6d48 b3be 7869 23be 8d97 2ebe ddd0 123e
000000a0: 6956 65be 5e41 9fba c13b a9be 90e7 af3d
000000b0: 9384 a8bd 6651 6cbe d1a0 a8bd 0b94 aa3c
000000c0: ed14 9f3c 8f2a dbbe 4f82 febd f257 84be
000000d0: ae85 d03c a79d a0bd b001 b6be 0d20 6abe
000000e0: 5d89 a4be 7fec cf3c ee3d 7bbe b5ef a4bd
000000f0: 61d2 69be d720 dcbe 5fe4 d73c 8768 cb3d

gnn.convs.0.lin.weight f4 [64, 64]
0.18646134 -0.19375819 0.20746203 0.10216621 -0.07395786 0.38678753 0.14960268 -0.045730826
-0.049052868 -0.17246616 0.18595299 -0.2865527 -0.13413888 0.14388554 0.055928227 -0.070405364
-0.06734139 -0.203869 -0.06463711 0.4566764 -0.13617423 -0.05629368 -0.078733295 -0.30792007
-0.04665838 -0.24022448 -0.0011775602 -0.047052447 0.13540876 0.047184195 -0.06497624 -0.00053511397
-0.21952799 -0.13704771 0.27285653 -0.26472262 0.25643235 -0.21107616 0.0076736533 0.1788632
0.16352573 0.079767406 -0.25598893 0.2755148 -0.15127853 0.113709226 -0.020123217 0.27164304
0.019573934 -0.1820122 -0.043925624 0.17233866 -0.19090575 -0.24295792 -0.11772125 0.055782855
-0.18219496 -0.17203316 -0.06776652 0.23916508 0.0052171308 0.162579 -0.0428448 -0.2121293
0.24399447 0.20297743 0.015455122 0.001331284 -0.1468448 0.2769237 -0.23549446 -0.27486166
0.31048203 0.024349466 -0.18080075 0.25370094 0.1508219 -0.06778805 0.24645776 0.14728656
0.04809235 -0.02624162 -0.011610735 0.36564404 -0.006818567 0.24176061 -0.32612023 -0.09821978
0.3752454 0.17372778 -0.14824346 0.110217795 -0.06850283 -0.013717411 0.28770974 -0.4130705
-0.14394854 -0.124376714 0.08835331 -0.094250314 -0.20521848 -0.18629041 0.07691666 -0.15964647
-0.11890078 -0.3144689 -0.14511445 0.17080137 0.3810104 0.09219778 0.122633345 0.25675708
0.21349475 -0.062681 -0.10033927 -0.025505485 -0.32437396 -0.37350607 0.2168951 0.022298928
-0.074163124 -0.18659565 -0.1724233 0.29006767 -0.20714638 0.41104236 -0.38804752 -0.17590006
0.132274 0.12282904 0.19879454 0.13054487 -0.46389306 0.38042936 -0.3895434 0.080162235
0.10392345 0.20889191 -0.1544642 0.15728612 0.25516033 0.20000842 0.37958178 0.29351246
0.45742273 0.24458438 -0.262604 0.31943232 0.037813626 0.32214573 0.2991342 -0.20493844
0.38890848 -0.27271962 0.03839259 0.07837304 -0.13025752 0.54201585 0.44461733 -0.14962187
0.0752277 0.108620346 0.5818919 0.17470388 0.20306236 -0.029669039 -0.2739868 -0.024265567
0.054227814 -0.08389231 0.07696466 -0.05874336 -0.027789844 -0.020487495 0.56311494 0.15350139
0.052419566 0.085335754 0.24282593 0.2616884 0.109101415 0.060057916 0.0965863 0.31689864
0.025361294 0.08001784 -0.037809454 0.21582541 -0.35514972 0.33829802 -0.29521427 0.14004192
-0.17951117 0.106163085 -0.09797725 -0.05289258 -0.17639911 0.3355627 0.08997286 0.23469749
-0.14654383 -0.18587574 0.2363663 0.24019681 0.2669596 0.11291383 0.22647986 -0.20821767
0.14262743 -0.0026802577 -0.4139991 -0.04031462 0.17004424 0.15762083 0.2674366 0.044967685
-0.1493698 -0.1812531 0.19248925 0.20815541 -0.12933527 0.17958878 0.30653813 0.15186813
-0.0015742809 0.2956467 -0.011498984 -0.21152484 0.22035192 -0.12606269 0.18175872 0.09485742
-0.13505322 0.52096474 -0.10888937 0.01385377 0.0019452043 0.030388817 0.33330104 0.33573884
-0.2265809 -0.03635822 0.07190263 -0.16412565 -0.01368591 0.065928884 0.15966278 0.07125152
-0.18984161 -0.085827574 0.042340737 0.06309978 0.11451076 0.20085041 0.13827966 0.118773766
00000000: b9ef 3e3e 8c68 46be ed70 543e 853c d13d
00000010: 3877 97bd 0409 c63e 7231 193e 3f50 3bbd
00000020: a9eb 48bd f89a 30be 766a 3e3e 09b7 92be
00000030: b45b 09be bb56 133e ff14 653d b030 90bd
00000040: 48ea 89bd 09c3 50be 7660 84bd 7dd1 e93e
00000050: 4271 0bbe 3494 66bd ec3e a1bd b3a7 9dbe
00000060: dc1c 3fbd 68fd 75be 5d58 9aba 11ba 40bd
00000070: 98a8 0a3e 3744 413d 4312 85bd e446 0cba
00000080: f2cb 60be 3c56 0cbe dab3 8b3e b989 87be
00000090: 1a4b 833e 5924 58be 4573 fb3b ea27 373e
000000a0: 4a73 273e 185d a33d fb10 83be 4710 8d3e
000000b0: c2e8 1abe 62e0 e83d 72d9 a4bc cc14 8b3e
000000c0: 8459 a03c 6861 3abe 5beb 33bd 8c79 303e
000000d0: cc7c 43be f6c9 78be d717 f1bd 907c 643d
000000e0: 5191 3abe 7629 30be 2cc9 8abd b1e7 743e
000000f0: 77f4 aa3b 1c7b 263e 077e 2fbd 6c38 59be
00000100: b0d9 793e 51d9 4f3e 7b37 7d3c 7a7e ae3a
00000110: 7c5e 16be f1c8 8d3e 7625 71be abba 8cbe
00000120: 80f7 9e3e 8878 c73c d523 39be 17e5 813e
00000130: 0e71 1a3e 76d4 8abd 6c5f 7c3e 4ad2 163e
00000140: 7cfc 443d aaf8 d6bc f43a 3ebc b235 bb3e
00000150: 496e dfbb 1890 773e 3bf9 a6be 7427 c9bd
00000160: 2a20 c03e b2e5 313e 22cd 17be deb9 e13d
00000170: 364b 8cbd febe 60bc b14e 933e fa7d d3be
00000180: 3f67 13be 38b9 febd 95f2 b43d 4f06 c1bd
00000190: cb24 52be eac2 3ebe 7b86 9d3d 5d7a 23be
000001a0: 4182 f3bd 1102 a1be e298 14be 8ee6 2e3e
000001b0: cc13 c33e 31d2 bc3d 3127 fb3d aa75 833e
000001c0: 5e9e 5a3e e55e 80bd ad7e cdbd e1f0 d0bc
000001d0: 5814 a6be 303c bfbe c019 5e3e 3eac b63c
000001e0: d6e2 97bd ee12 3fbe bc8f 30be c083 943e
000001f0: 2e1e 54be 2574 d23e 2aae c6be 251f 34be
00000200: d672 073e cb8d fb3d cc90 4b3e 8ead 053e
00000210: 6483 edbe a3c7 c23e 3c72 c7be 192c a43d
00000220: d1d5 d43d c3e7 553e dd2b 1ebe 9d0f 213e
00000230: 60a4 823e 02cf 4c3e 8b58 c23e 4447 963e
00000240: 5033 ea3e 5474 7a3e 0874 86be a28c a33e
00000250: 76e2 1a3d 49f0 a43e 1e28 993e 62db 51be
00000260: 031f c73e e8a1 8bbe 8c41 1d3d 0b82 a03d
00000270: 3a62 05be 8dc1 0a3f e2a4 e33e 7a36 19be
00000280: fb10 9a3d 5874 de3d def6 143f 93e5 323e
00000290: 94ef 4f3e 7c0c f3bc ff47 8cbe 95c8 c6bc
000002a0: fc1d 5e3d bbcf abbd a69f 9d3d e19c 70bd
000002b0: 87a7 e3bc 64d5 a7bc 4d28 103f 782f 1d3e
000002c0: e6b5 563d 83c4 ae3d 5ca7 783e 06fc 853e
000002d0: 9070 df3d 4aff 753d 0acf c53d 8a40 a23e
000002e0: 7dc2 cf3c 65e0 a33d 16de 1abd 5601 5d3e
000002f0: 2fd6 b5be 6635 ad3e 5326 97be 2667 0f3e
00000300: c7d1 37be 086c d93d 4ca8 c8bd e4a5 58bd
00000310: f8a1 34be e0ce ab3e b143 b83d 8a54 703e
00000320: 960f 16be 3656 3ebe 020a 723e 27f6 753e
00000330: eeae 883e 5e3f e73d 56ea 673e 0337 55be
00000340: ed0c 123e 43a7 2fbb b1f7 d3be f120 25bd
00000350: 1420 2e3e 5b67 213e 73ed 883e 0930 383d
00000360: 66f4 18be 6a9a 39be e71b 453e b126 553e
00000370: 7770 04be 1fe6 373e 91f2 9c3e 5283 1b3e
00000380: 1a58 ceba 015f 973e 3c66 3cbc f899 58be
00000390: efa3 613e 9416 01be f51e 3a3e 9b44 c23d
000003a0: 644b 0abe f25d 053f 6401 dfbd ecfa 623c
000003b0: 3af6 fe3a f8f1 f83c 6fa6 aa3e f6e5 ab3e
000003c0: d304 68be 5bec 14bd b041 933d 8e10 28be
000003d0: de3a 60bc b905 873d a47e 233e 51ec 913d
000003e0: d765 42be 5ec6 afbd 7b6d 2d3d 753a 813d
000003f0: 9e84 ea3d bbab 4d3e 2f99 0d3e a93f f33d

gnn.convs.0.res.weight f4 [64, 64]
-0.12175831 0.208198 0.34529358 -0.13953221 0.16809024 -0.43051556 0.29424036 0.3069082
0.15177889 -0.11067801 0.010495548 -0.0149133885 0.19009508 -0.27911392 -0.23014252 0.067551434
0.09210178 -0.055155344 0.0075312993 -0.0063726706 -0.026041789 0.054126803 0.49205455 0.051829167
0.026590452 -0.05530057 0.08365105 0.13480197 0.23846659 -0.06344615 0.056521762 -0.020588977
0.07659924 0.24302793 -0.04586312 0.20811827 -0.20465004 -0.011010236 -0.18808334 -0.23855866
-0.074995555 0.20275858 0.011967431 -0.037526123 0.12622072 -0.15239058 -0.030033477 0.13285182
-0.31276497 0.08528308 0.15231796 0.10851553 -0.10725197 0.28954253 -0.03468999 -0.13633078
-0.0022113756 0.42815375 -0.1342073 -0.20148851 0.22073151 -0.092778884 -0.1220382 0.3855457
0.14199223 -0.1630867 0.10952868 0.12316556 -0.27136284 -0.264397 0.20492692 0.115732335
-0.030968126 0.15260495 -0.07107581 0.17155243 0.18405126 -0.25738993 0.1413107 0.26064792
0.053371254 -0.006076129 0.49777496 -0.06852566 0.08893511 0.13474596 0.007996269 0.2838853
0.33822533 0.18657604 -0.080547005 -0.09129638 0.18403342 0.20470305 0.061811883 -0.3589715
0.036483303 0.009115504 0.2653425 0.2640088 -0.00066232664 0.10527746 -0.24531905 -0.096226186
-0.34649757 -0.33617967 0.18294238 0.256657 -0.015671292 -0.10550519 0.17702617 0.08573875
0.16870178 0.24447608 -0.18976142 -0.05515903 -0.07759776 -0.28650433 0.041184474 0.04260224
0.035951585 0.09991494 0.052204255 -0.033206362 -0.09909801 0.07859088 -0.10196694 -0.053238783
0.6303871 0.13140349 0.61504227 -0.21017691 -0.14256929 0.1067158 -0.38094 -0.2959464
0.037648916 -0.23974128 -0.075992085 -0.08843807 -0.07494043 -0.23879422 -0.5274987 0.44338706
0.0813731 0.15133975 0.042616587 0.17759839 0.052110184 -0.07974263 -0.08007856 0.15163815
0.5537069 -0.26765898 -0.39173225 0.3741795 0.6163091 0.054670356 -0.08825637 0.059209034
-0.18375298 -0.29115397 0.2742661 0.1325689 -0.32296824 -0.020068357 -0.36889315 -0.44585007
-0.25873402 -0.7325612 0.019123072 0.9242899 0.16327748 0.15457512 -0.1302596 -0.09521396
0.10106453 0.26603523 0.5592292 0.26466852 -0.386572 -0.10059417 0.11268709 -0.28234607
0.21371314 0.005434032 -0.6510506 0.30489302 -0.68069607 -0.037623614 -0.39987084 -0.20856701
-0.3909501 -0.717281 -0.29737318 -0.0024669268 -0.05391645 -0.13044271 -0.038822573 0.14621155
-0.15810156 -0.33377826 -0.09756945 -0.006215472 0.035723623 -0.0077588763 0.25871867 -0.19578521
-0.5178743 -0.16762008 0.0358978 -0.28101507 -0.1551 0.35582486 0.0021871584 0.1026722
0.07688256 -0.20855288 -0.005938274 -0.07386846 -0.43580687 -0.1591197 -0.11731525 -0.19898358
-0.24490744 -0.07730335 -0.23426834 -0.18339908 0.4319271 0.6150065 0.23830414 0.3406651
-0.08871867 -0.011317622 0.13143425 -0.18614176 0.06314147 0.04488838 0.19191259 -0.4743557
0.10596863 0.08037031 -0.029043578 -0.14261435 0.38555622 -0.1344622 0.050819255 0.05569722
-0.1023393 0.046753038 0.33646104 -0.32732862 0.39648232 -0.11480369 0.21695241 0.0104486225
00000000: 6c5c f9bd db31 553e 52ca b03e 88e1 0ebe
00000010: d91f 2c3e 896c dcbe aca6 963e 1223 9d3e
00000020: ed6b 1b3e 27ab e2bd 85f5 2b3c 4957 74bc
00000030: 49a8 423e 05e8 8ebe 7baa 6bbe 6858 8a3d
00000040: dc9f bc3d 92ea 61bd 1ec9 f63b d6d1 d0bb
00000050: 9755 d5bc 11b4 5d3d 93ee fb3e d24a 543d
00000060: 38d4 d93c da82 62bd 3e51 ab3d 8709 0a3e
00000070: 9630 743e 0ef0 81bd 5d83 673d 37aa a8bc
00000080: 10e0 9c3d 50dc 783e f8da 3bbd f51c 553e
00000090: c88f 51be 4764 34bc eb98 40be b948 74be
000000a0: 4597 99bd f29f 4f3e 0b13 443c feb4 19bd
000000b0: 0140 013e 470c 1cbe c408 f6bc 4f0a 083e
000000c0: bb22 a0be e5a8 ae3d 3df9 1b3e 643d de3d
000000d0: eca6 dbbd eb3e 943e 1717 0ebd 4c9a 0bbe
000000e0: baec 10bb f836 db3e a36d 09be 0153 4ebe
000000f0: 7107 623e db02 bebd 2aef f9bd 3f66 c53e
00000100: 6966 113e 3300 27be 9350 e03d 3a3e fc3d
00000110: 12f0 8abe 0b5f 87be 5dd8 513e 1305 ed3d
00000120: deb0 fdbc 7944 1c3e 3290 91bd 71ab 2f3e
00000130: ef77 3c3e 9dc8 83be c1b3 103e a573 853e
00000140: d19b 5a3d 441a c7bb 5cdc fe3e 2e57 8cbd
00000150: 9c23 b63d d8fa 093e c802 033c 6a59 913e
00000160: df2b ad3e ca0d 3f3e d4f5 a4bd 99f9 babd
00000170: 4273 3c3e ad9d 513e 752e 7d3d 1dcb b7be
00000180: 846f 153d 3259 153c f9da 873e 292c 873e
00000190: fd9f 2dba b59b d73d eb34 7bbe 3c12 c5bd
000001a0: 2168 b1be be1f acbe 3f55 3b3e 8c68 833e
000001b0: 1561 80bc 1b13 d8bd 5946 353e cc97 af3d
000001c0: 29c0 2c3e f057 7a3e d150 42be 6fee 61bd
000001d0: 93eb 9ebd b2b0 92be 0db1 283d b07f 2e3d
000001e0: f841 133d 34a0 cc3d 21d4 553d 6503 08bd
000001f0: e6f3 cabd 41f4 a03d 0bd4 d0bd e910 5abd
00000200: 0d61 213f a38e 063e 6973 1d3f 9e38 57be
00000210: affd 11be d08d da3d 910a c3be 4986 97be
00000220: c035 1a3d bd7e 75be bda1 9bbd 051f b5bd
00000230: 5e7a 99bd 7986 74be 280a 07bf a103 e33e
00000240: f1a6 a63d cff8 1a3e bb8e 2e3d 5adc 353e
00000250: 7d71 553d 1b50 a3bd 3a00 a4bd 0847 1b3e
00000260: bcbf 0d3f 990a 89be 2191 c8be 7594 bf3e
00000270: 6fc6 1d3f 06ee 5f3d c1bf b4bd 2c85 723d
00000280: be29 3cbe 2212 95be 9b6c 8c3e 24c0 073e
00000290: 185c a5be 6566 a4bc 90df bcbe 7646 e4be
000002a0: c978 84be 2189 3bbf fda7 9c3c 439e 6c3f
000002b0: 3632 273e f148 1e3e c662 05be 89ff c2bd
000002c0: ecfa ce3d c535 883e a529 0f3f a282 873e
000002d0: c4ec c5be 5104 cebd 7dc8 e63d aa8f 90be
000002e0: 9ed7 5a3e f70f b23b 41ab 26bf f01a 9c3e
000002f0: 1942 2ebf 381b 1abd dfbb ccbe 9792 55be
00000300: 9d2a c8be ba9f 37bf 4c41 98be 2aac 21bb
00000310: 7fd7 5cbd c692 05be 6b04 1fbd 7bb8 153e
00000320: 60e5 21be fce4 aabe 7ed2 c7bd 28ab cbbb
00000330: ef52 123d 2c3e febb c676 843e eb7b 48be
00000340: 6993 04bf 99a4 2bbe 9209 133d 35e1 8fbe
00000350: 89d2 1ebe ad2e b63e 6e56 0f3b cd45 d23d
00000360: 9b74 9d3d e38e 55be da95 c2bb 5948 97bd
00000370: 1422 dfbe 46f0 22be fa42 f0bd 5ac2 4bbe
00000380: 04c9 7abe 3851 9ebd 0ae4 6fbe f8cc 3bbe
00000390: 8d25 dd3e 1171 1d3f 0006 743e a86b ae3e
000003a0: 22b2 b5bd 8c6d 39bc b396 063e f29b 3ebe
000003b0: 5150 813d e1dc 373d bc84 443e c0de f2be
000003c0: 1506 d93d 3099 a43d ccec edbc 7f09 12be
000003d0: a067 c53e 75b0 09be da27 503d c522 643d
000003e0: 4497 d1bd 1d80 3f3d 9f44 ac3e 9e97 a7be
000003f0: bbff ca3e 321e ebbd c628 5e3e b330 2b3c

gnn.convs.1.att_src f4 [1, 4, 16]
0.40460324 -0.15055512 0.25483343 0.187997 0.11800088 -0.5901556 0.10545987 -0.08877394
0.87786704 -0.096237935 0.18592104 0.6920711 0.03307439 0.6993817 0.48093686 -0.51100063
-0.5375849 -0.033852726 -0.6460013 0.26870978 -0.75340635 0.17340976 -0.33788684 -1.0898917
-0.07266749 -0.5261034 -0.63020474 0.35586813 -0.46170712 0.2038958 -0.007309637 0.30359074
-0.5330839 -0.11876491 0.11440455 -0.37651375 0.25427642 -0.17833754 -0.20770697 -0.3909077
0.44224817 0.2036383 -0.40749353 -0.25997427 0.5659894 1.2911315 0.20591971 0.42005235
-0.21049719 0.40715593 0.16720124 -0.19341189 0.58353287 -0.67048967 0.41591823 -0.4672088
-1.156188 0.5132811 0.38240406 -0.22283268 0.7173389 -0.48454854 -0.43635926 0.27226934
00000000: 2828 cf3e 1f2b 1abe 8779 823e 4982 403e
00000010: 72aa f13d 7014 17bf 58fb d73d 1dcf b5bd
00000020: e5bb 603f 6518 c5bd 1662 3e3e 922b 313f
00000030: 0379 073d ae0a 333f 5b3d f63e f0d0 02bf
00000040: 2a9f 09bf 28a9 0abd 5760 25bf 5494 893e
00000050: 3ddf 40bf 5492 313e 81ff acbe 9281 8bbf
00000060: b1d2 94bd b6ae 06bf 1955 21bf 5934 b63e
00000070: e064 ecbe 10ca 503e ae85 efbb 3f70 9b3e
00000080: 3078 08bf 043b f3bd ef4c ea3d 69c6 c0be
00000090: 8530 823e 1e9e 36be 23b1 54be 0e25 c8be
000000a0: 5a6e e23e 8f86 503e fea2 d0be 591b 85be
000000b0: aee4 103f cc43 a53f 9edc 523e 1a11 d73e
000000c0: 938c 57be be76 d03e cd36 2b3e c40d 46be
000000d0: 6962 153f 36a5 2bbf 3cf3 d43e fe35 efbe
000000e0: f8fd 93bf 6466 033f 77ca c33e 402e 64be
000000f0: 86a3 373f bf16 f8be 7b6a dfbe e366 8b3e

gnn.convs.1.att_dst f4 [1, 4, 16]
-1.1127942 -0.6989079 0.61784476 -0.8382353 -0.5968097 -0.56725186 -0.70436084 0.06903179
-0.22517285 0.18259257 -0.54255986 -0.44783166 -0.8390584 -0.48380056 0.6301486 0.26664892
-0.20561971 -0.15947793 0.008216023 0.18870257 0.57369095 -0.37113875 -0.009065672 0.7371405
-0.20890026 -0.09629359 -0.28651363 -0.8262289 -0.4291893 -0.5504791 -0.70890856 -0.845089
-0.41703814 -0.7810595 -0.29705557 -0.06083291 0.59935266 0.20851387 -0.54038244 0.3765454
-0.104557276 -0.22312489 0.42771193 0.30275112 -1.0455451 -0.9491067 -0.12224408 -0.7076022
0.030411238 0.13833426 -0.3852876 -0.23494038 -0.40177873 0.884966 -0.29445854 0.52139616
0.031222839 0.2932237 -0.14522934 -0.63427585 -0.50510454 1.0032271 0.6252544 0.21721303
00000000: 0a70 8ebf a1eb 32bf 132b 1e3f 9796 56bf
00000010: 85c8 18bf 6b37 11bf fe50 34bf 8a60 8d3d
00000020: b693 66be 8cf9 3a3e 34e5 0abf 314a e5be
00000030: 88cc 56bf b5b4 f7be 6b51 213f 3586 883e
00000040: f98d 52be 2f4e 23be 809c 063c 3f3b 413e
00000050: 69dd 123f e605 bebe 2f88 14bc 3db5 3c3f
00000060: f3e9 55be 9335 c5bd eab1 92be bd83 53bf
00000070: b3be dbbe 33ec 0cbf 087b 35bf c157 58bf
00000080: 0686 d5be 84f3 47bf ab17 98be ee2b 79bd
00000090: 2d6f 193f a984 553e 8156 0abf 8fca c03e
000000a0: 2022 d6bd da7a 64be 0ffd da3e 3202 9b3e
000000b0: 6cd4 85bf a8f8 72bf 1b5b fabd 6b25 35bf
000000c0: fd20 f93c 7fa7 0d3e 6b44 c5be 3694 70be
000000d0: f1b5 cdbe 228d 623f 45c3 96be 387a 053f
000000e0: 0ac7 ff3c 6b21 963e 00b7 14be e75f 22bf
000000f0: 884e 01bf bf69 803f ac10 203f 186d 5e3e

gnn.convs.1.bias f4 [64]
-0.13105236 0.2386675 0.2981658 0.14251104 -0.1897633 -0.12850009 -0.15820749 0.3940506
0.21421961 0.23612738 -0.013056548 -0.12007798 -0.14713714 -0.19103423 0.2411106 -0.3722436
0.24612375 0.0048804926 -0.12600508 0.2864779 -0.28820184 0.12094123 -0.07131537 -0.10732027
-0.16958134 -0.16902556 -0.1711787 -0.19694382 0.1706844 0.19312422 -0.29524148 0.21478778
0.1661257 -0.2732676 0.14377224 0.21514168 -0.4465665 0.17766152 -0.22271809 -0.08059491
0.3695351 -0.2926064 0.33101732 0.14254043 -0.05022424 -0.040822882 -0.2657057 0.0028917887
0.13504931 -0.22480558 0.2119291 -0.2087494 -0.18689528 0.1925428 0.14167933 0.0016362414
-0.31519052 0.14913648 -0.48258325 -0.21169005 0.23375201 0.090371154 0.047203083 -0.22360179
00000000: 9732 06be 4165 743e 30a9 983e 6aee 113e
00000010: 4f51 42be 8795 03be 2501 22be 00c1 c93e
00000020: 635c 5b3e 60cb 713e 22eb 55bc 72eb f5bd
00000030: 1eab 16be 7a9e 43be b2e5 763e b796 bebe
00000040: dd07 7c3e 8aec 9f3b 7a07 01be 3bad 923e
00000050: 318f 93be 09b0 f73d cb0d 92bd bbca dbbd
00000060: bba6 2dbe 0915 2dbe 7849 2fbe a4ab 49be
00000070: e4c7 2e3e 5bc2 453e e429 97be 54f1 5b3e
00000080: db1c 2a3e bbe9 8bbe 0839 133e 1a4e 5c3e
00000090: 5da4 e4be e7ec 353e 3610 64be f20e a5bd
000000a0: b433 bd3e 82d0 95be 1a7b a93e 1ef6 113e
000000b0: efb7 4dbd e535 27bd 940a 88be 2a84 3d3b
000000c0: 5e4a 0a3e 6f33 66be f103 593e 67c2 55be
000000d0: 7a61 3fbe f129 453e 6314 113e 2777 d63a
000000e0: a760 a1be 3cb7 183e 2715 f7be 47c5 58be
000000f0: b05c 6f3e 8314 b93d 0558 413d def7 64be

gnn.convs.1.lin.weight f4 [64, 64]
-0.30909145 0.43614691 -0.714245 -0.0035520121 -0.20426601 -0.23105413 -0.21395774 -0.16096261
0.054084487 -0.3653083 0.032938264 -0.13871267 -0.0014330745 -0.0057003265 0.17382939 -0.3006157
-0.10259255 0.1966728 -0.07621266 -0.37952143 0.20688216 0.022138234 -0.1751847 -0.037797008
0.006424651 -0.49397293 -0.07009363 0.13921982 -0.010999199 0.19819482 0.29082283 -0.21553493
-0.22251531 0.06831693 -0.0369154 0.0083129825 -0.22235157 -0.19636098 -0.71476585 0.038158216
0.13744412 -0.13989589 -0.067587435 -0.068903476 0.004492242 0.051908225 -0.19689076 -0.2497401
-0.2405148 -0.11170909 -0.0027311717 0.098480135 -0.18031709 -0.28169388 -0.24335533 0.035260674
0.14673191 -0.1709135 -0.1419039 -0.19112009 -0.040507007 0.06805569 0.12228121 -0.0017590111
-0.07443287 0.15215123 0.6488347 0.25291973 -0.1716777 -0.015498164 0.1420119 -0.2497727
0.1916726 0.022940064 0.075975105 0.14925975 0.04128499 0.17414239 -0.15738195 -0.038371738
-0.15643612 0.007318385 -0.5151376 0.03591503 0.32551017 0.0016119601 -0.12582481 -0.096174076
-0.006109391 -0.010973662 -0.22821121 -0.16333537 0.055379122 0.26598516 -0.05344559 -0.012835
-0.13902432 -1.022561 -0.13864323 -0.22853652 -0.19654441 -0.0584004 -0.49758533 0.3207111
0.054995213 0.05993276 -0.15516075 -0.25130293 0.19235735 0.14296328 0.097689815 0.046910807
-0.21285708 0.5302431 -0.12941541 0.03464233 -0.07146259 -0.20573398 -0.02263695 0.5838132
-0.17316104 -0.12329062 -0.13187456 0.7066527 -0.2868742 -0.45751205 -0.060134124 -0.022385832
0.0018726971 0.34795552 -0.27211782 -0.034761198 -0.14300734 -0.019183101 0.39594927 -0.17235656
0.37884045 -0.53929853 0.22738893 -0.06805971 -0.15650292 0.2463656 -0.2707142 -0.2250636
0.38772544 0.044525273 0.09243034 0.11876424 0.33190614 0.25681683 -0.24464014 0.14201997
-0.13534907 -0.42992288 -0.24922636 0.0016088691 0.1470724 -0.02293746 -0.11364851 -0.04464732
-0.15018195 -0.18376799 -0.20404808 -0.3765565 0.06957607 0.03360318 0.066400595 -0.020155229
0.06708348 0.25987703 -0.025711982 0.24361837 -0.021548042 0.13123296 -0.011226286 -0.1499403
0.19706334 0.1304287 0.14981467 -0.07660948 -0.07726885 -0.33135122 0.07551085 0.61970484
0.1032551 0.11074009 0.19588289 0.6247145 0.25818053 -0.46392238 -0.3000923 0.117935516
-0.3013151 -0.005417866 0.0062559545 -0.098265395 -0.066576414 0.39354804 -0.4166959 -0.60407233
-0.20688535 -0.23990148 0.28822818 -0.18837595 0.08300644 0.09029504 0.087631986 -0.14164552
0.1309512 -0.036527906 -0.103674546 0.010509423 -0.038735174 -0.6013924 0.06332123 0.08409834
-0.2105002 -0.27091047 -0.09196974 0.116603374 -0.2709468 0.019597149 0.23338701 0.044205092
-0.3049836 -0.07579456 -0.04159705 -0.42315656 0.025102984 0.28053734 -0.35316375 -0.23190524
-0.08271877 -0.15053608 -0.1695159 -0.13262525 -0.034528103 -0.16185378 -0.38780472 0.22944038
-0.117358595 0.2647569 0.2787562 0.11161113 0.11999577 -0.13551752 -0.20134205 0.09939457
-0.28261212 0.21856938 0.0441608 0.34348097 -0.4464926 -0.34545907 -0.5884115 -0.19626063
00000000: 3c41 9ebe a64e df3e c3d8 36bf e0c8 68bb
00000010: 1c2b 51be 7499 6cbe bd17 5bbe 62d3 24be
00000020: b287 5d3d b109 bbbe 46ea 063d b20a 0ebe
00000030: 00d6 bbba cec9 babb 5500 323e 4dea 99be
00000040: 0b1c d2bd 9864 493e 6215 9cbd a250 c2be
00000050: ebd8 533e 3e5b b53c 9e63 33be 09d1 1abd
00000060: e185 d23b 05ea fcbe 408d 8fbd a48f 0e3e
00000070: fc35 34bc 95f3 4a3e bbe6 943e 30b5 5cbe
00000080: 0edb 63be bfe9 8b3d 9a34 17bd 2d33 083c
00000090: 21b0 63be da12 49be e5fa 36bf ca4b 1c3d
000000a0: 27be 0c3e de40 0fbe 486b 8abd 441d 8dbd
000000b0: a833 933b b89d 543d bb9d 49be debb 7fbe
000000c0: 8349 76be bcc7 e4bd 75fd 32bb f4af c93d
000000d0: 0ba5 38be 2e3a 90be 2432 79be 7f6d 103d
000000e0: e440 163e f303 2fbe 424f 11be fcb4 43be
000000f0: adea 25bd c860 8b3d 926e fa3d 9e8e e6ba
00000100: 4370 98bd 88cd 1b3e 081a 263f b27e 813e
00000110: 47cc 2fbe 03ec 7dbc 916b 113e 6ac4 7fbe
00000120: d245 443e cdec bb3c d698 9b3d 8cd7 183e
00000130: 731a 293d 6252 323e bc28 21be af2b 1dbd
00000140: ca30 20be 10cf ef3b 0fe0 03bf a31b 133d
00000150: 45a9 a63e 6848 d33a 38d8 00be eaf6 c4bd
00000160: 4931 c8bb e0ca 33bc 33b0 69be 6341 27be
00000170: 38d5 623d 352f 883e c3e9 5abd e449 52bc
00000180: 645c 0ebe 47e3 82bf 7ef8 0dbe 7a05 6abe
00000190: f042 49be 4235 6fbd 81c3 febe 3f34 a43e
000001a0: a942 613d 0e7c 753d 76e2 1ebe c7aa 80be
000001b0: 53f9 443e f764 123e 9911 c83d 8c25 403d
000001c0: 35f7 59be 03be 073f 7985 04be 1ee5 0d3d
000001d0: fa5a 92bd eeab 52be 2071 b9bc c874 153f
000001e0: 2151 31be cb7f fcbd 200a 07be 31e7 343f
000001f0: 2de1 92be 053f eabe 334f 76bd 7e62 b7bc
00000200: 4a75 f53a 3a27 b23e 0753 8bbe c261 0ebd
00000210: 8470 12be e125 9dbc ddb9 ca3e 3d7e 30be
00000220: 60f7 c13e 780f 0abf a5d8 683e e462 8bbd
00000230: 4d42 20be 4447 7c3e 0d9b 8abe 1377 66be
00000240: f383 c63e 2260 363d 1e4c bd3d aa3a f33d
00000250: 9aef a93e 7f7d 833e f282 7abe af6d 113e
00000260: f298 0abe da1e dcbe 3235 7fbe b0e0 d23a
00000270: 269a 163e 57e7 bbbc 8dc0 e8bd 1ce0 36bd
00000280: 4cc9 19be ad2d 3cbe fbf1 50be 03cc c0be
00000290: e67d 8e3d 7da3 093d 09fd 873d 941c a5bc
000002a0: 1063 893d 9a0e 853e efa1 d2bc 1877 793e
000002b0: 8585 b0bc ef61 063e 75ee 37bc f389 19be
000002c0: f9ca 493e 1a8f 053e 0469 193e 6ee5 9cbd
000002d0: 213f 9ebd dea6 a9be 6fa5 9a3d faa4 1e3f
000002e0: 6977 d33d b3cb e23d 8695 483e 4aed 1f3f
000002f0: 3d30 843e 3c87 edbe b3a5 99be 2d88 f13d
00000300: f945 9abe 5b88 b1bb c0fe cc3b 5e3f c9bd
00000310: 3759 88bd 217f c93e 2a59 d5be 7ca4 1abf
00000320: c1d9 53be bca8 75be a592 933e a0e5 40be
00000330: 48ff a93d 9bec b83d 6678 b33d 860b 11be
00000340: 1218 063e 499e 15bd 5253 d4bd b72f 2c3c
00000350: c6a8 1ebd daf4 19bf 90ae 813d c03b ac3d
00000360: 5d8d 57be c7b4 8abe a25a bcbd c0cd ee3d
00000370: 8ab9 8abe 338a a03c 01fd 6e3e 6610 353d
00000380: cf26 9cbe 2e3a 9bbd ab61 2abd faa7 d8be
00000390: c6a4 cd3c 97a2 8f3e e1d1 b4be 9178 6dbe
000003a0: 7568 a9bd 2126 1abe 9395 2dbe eace 07be
000003b0: 576d 0dbd ffbc 25be 578e c6be 6bf2 6a3e
000003c0: b459 f0bd 378e 873e 22b9 8e3e 6094 e43d
000003d0: 58c0 f53d 1bc5 0abe 9c2c 4ebe 618f cb3d
000003e0: 89b2 90be a7d0 5f3e f4e1 343d bddc af3e
000003f0: ae9a e4be 03e0 b0be 23a2 16bf 8cf8 48be

gnn.convs.1.res.weight f4 [64, 64]
-0.23049103 0.25860587 0.013748444 0.056915246 0.18500029 -0.23728412 -0.26210782 -0.325184
-0.07883885 -0.030241175 -0.13935132 0.028109264 -0.11970926 0.07772561 -0.12267989 -0.10020381
-0.2705445 -0.027759837 -0.12455977 -0.21746698 0.37403402 0.17749289 0.08961443 0.0053852266
-0.036715377 -0.026756084 -0.19937296 0.10668299 0.05262723 0.16651095 0.011418305 -0.05694319
-0.19989842 -0.17682053 -0.015374656 0.09868486 -0.07870105 0.05853443 -0.45915133 -0.22748771
0.09438592 -0.24821058 0.032937147 -0.18744205 0.10673014 -0.026761636 0.06263166 -0.31207395
-0.26450267 0.13281807 -0.014891911 0.09551472 0.08327349 -0.22573566 -0.045687098 0.19537775
0.11409698 0.33837867 -0.01603118 0.25317898 -0.04190028 0.07565424 0.11751448 0.12593313
-0.057141762 -0.11136887 0.5281806 0.18156692 -0.25292277 -0.028116016 -0.104872644 -0.18215531
0.083410785 -0.038438696 -0.27324376 -0.14604965 0.21567579 -0.013513252 0.118308276 -0.03493836
0.018663988 -0.22758977 -0.35354835 -0.13992749 -0.033447094 0.040670574 0.046884984 -0.07868889
0.086555034 0.095945396 0.03498665 -0.39483193 -0.02207107 0.15032206 -0.07308442 -0.10304207
0.0035557444 -0.47624612 -0.4447569 0.2764875 -0.2779215 -0.05225363 -0.42998403 -0.05912936
-0.31608924 0.13002327 -0.036319166 -0.3876614 0.06582655 -0.09791607 -0.12104283 -0.03560152
0.058964893 -0.6056978 0.10635275 -0.121574715 0.18903399 -0.3098214 -0.29297206 0.2912552
-0.045886885 -0.2901103 -0.19490503 -0.22398853 -0.1767927 0.14977226 -0.30738902 -0.24945118
-0.178134 0.18254489 -0.30000883 -0.29379904 -0.11606106 -0.37537596 -0.040061124 -0.12356945
-0.2588264 -0.29697016 -0.18333875 0.016105065 0.0006776874 0.08830654 -0.013844792 0.22242633
-0.05767351 -0.3116934 0.2322436 -0.20766729 -0.08912393 0.28518295 -0.20339835 0.17295396
0.18007506 -0.2821792 0.13378228 -0.09582104 0.06977966 -0.23759566 -0.52304333 0.031227106
0.0055733407 -0.03043062 -0.300463 0.1424424 -0.18568625 -0.10451361 -0.16514161 0.063875854
-0.079269744 -0.14245693 -0.17844877 -0.06306087 0.25241598 0.19871545 0.19010952 -0.09664051
-0.14219315 -0.051128656 0.06878137 -0.2042027 0.065243445 -0.3385399 -0.056046 0.26687133
-0.26286322 -0.23100835 0.06464165 0.014857915 -0.27704334 0.18892296 -0.14499496 -0.091871604
-0.17252895 0.17389882 -0.4477391 0.09351942 -0.12106329 -0.019995863 -0.40162203 -0.31380442
0.066454105 -0.09692162 0.0509037 -0.17522582 -0.21310882 0.044789623 -0.006637168 -0.036204413
-0.66443825 -0.49118382 -0.13362668 -0.16381381 0.08261316 -0.38007274 0.25239706 -0.16864957
0.1714461 -0.081286095 0.1905444 0.062025134 0.19863784 0.024098173 -0.43311447 -0.016602773
0.22534409 -0.11476984 -0.02347504 0.19393665 -0.44618657 0.12398681 0.0889553 -0.17990659
-0.33428937 0.043574233 -0.13584033 0.042944483 -0.19084312 0.1107842 -0.13262643 0.102314435
-0.17534402 -0.19156358 -0.060179867 -0.023766516 -0.021394169 -0.34051272 -0.144725 -0.25155818
0.05630322 0.16946284 0.15107621 0.0016322171 -0.51760423 -0.49333596 -0.2264798 -0.54064065
00000000: d705 6cbe fd67 843e 2741 613c f61f 693d
00000010: b770 3d3e 9cfa 72be ff32 86be 847e a6be
00000020: 4376 a1bd 57bc f7bc 1db2 0ebe 6645 e63c
00000030: 212a f5bd 9b2e 9f3d 983f fbbd a837 cdbd
00000040: cf84 8abe 9968 e3bc 3119 ffbd aaaf 5ebe
00000050: 6381 bf3e b2c0 353e c587 b73d 8e76 b03b
00000060: dd62 16bd 932f dbbc 6d28 4cbe 9d7c da3d
00000070: a68f 573d d981 2a3e d813 3b3c 433d 69bd
00000080: 2cb2 4cbe 7110 35be fbe5 7bbc 4a1b ca3d
00000090: 042e a1bd ccc1 6f3d e215 ebbe 8af2 68be
000000a0: 684d c13d ea2a 7ebe 1ae9 063d cff0 3fbe
000000b0: 5595 da3d 383b dbbc 0745 803d 28c8 9fbe
000000c0: e56c 87be 7601 083e 34fd 73bc 399d c33d
000000d0: 4b8b aa3d 4027 67be 6522 3bbd 1b11 483e
000000e0: adab e93d f83f ad3e d253 83bc ada0 813e
000000f0: a19f 2bbd 9cf0 9a3d 6fab f03d 9df4 003e
00000100: 7b0d 6abd 5d15 e4bd d836 073f aeec 393e
00000110: 187f 81be 8f53 e6bc 78c7 d6bd ec86 3abe
00000120: 46d3 aa3d e571 1dbd 9be6 8bbe 0a8e 15be
00000130: 1dda 5c3e b066 5dbc 9c4b f23d 871b 0fbd
00000140: 38e5 983c 4b0d 69be 4a04 b5be 2749 0fbe
00000150: d2ff 08bd 3096 263d 780a 403d a427 a1bd
00000160: c443 b13d 057f c43d 294e 0f3d 6927 cabe
00000170: 63ce b4bc 07ee 193e 49ad 95bd b907 d3bd
00000180: 7e07 693b 88d6 f3be 2db7 e3be c58f 8d3e
00000190: ba4b 8ebe e707 56bd de26 dcbe a131 72bd
000001a0: 73d6 a1be d224 053e 68c3 14bd 8e7b c6be
000001b0: 12d0 863d 3888 c8bd 4ee5 f7bd e6d2 11bd
000001c0: 2c85 713d 030f 1bbf 78cf d93d 2afc f8bd
000001d0: 2092 413e e9a0 9ebe 6f00 96be 671f 953e
000001e0: e3f3 3bbd 5689 94be 2f95 47be 405d 65be
000001f0: 2509 35be e65d 193e 1862 9dbe 2170 7fbe
00000200: c268 36be 0ced 3a3e c29a 99be d46c 96be
00000210: 6cb1 edbd 4731 c0be 2217 24bd fb11 fdbd
00000220: e584 84be 790c 98be 27bd 3bbe c5ee 833c
00000230: d5a6 313a 0fda b43d 44d5 62bc bac3 633e
00000240: 0f3b 6cbd 4796 9fbe 44d1 6d3e bca6 54be
00000250: 9b86 b6bd 8003 923e a847 50be d81a 313e
00000260: 9965 383e cb79 90be 39fe 083e d23d c4bd
00000270: a3e8 8e3d 474c 73be 2be6 05bf fdcf ff3c
00000280: 92a0 b63b a349 f9bc 49d6 99be 6cdc 113e
00000290: 8924 3ebe 3b0b d6bd e21a 29be 58d1 823d
000002a0: 2d58 a2bd 3be0 11be 46bb 36be 0f26 81bd
000002b0: ab3c 813e 107c 4b3e 12ac 423e 76eb c5bd
000002c0: 159b 11be 486c 51bd 3fdd 8c3d 831a 51be
000002d0: 5b9e 853d 1a55 adbe 7e90 65bd 5ca3 883e
000002e0: 0296 86be 748d 6cbe d762 843d 9d6e 733c
000002f0: a0d8 8dbe 0575 413e 8f79 14be 2e27 bcbd
00000300: 6eab 30be 8812 323e 0f3e e5be 1c87 bf3d
00000310: 08f0 f7bd 5dce a3bc 67a1 cdbe f9aa a0be
00000320: 1719 883d d87e c6bd 6680 503d 666e 33be
00000330: 3339 5abe 5375 373d 9a7c d9bb 144b 14bd
00000340: a018 2abf 727c fbbe 6fd5 08be cfbe 27be
00000350: 1731 a93d e598 c2be 303a 813e 79b2 2cbe
00000360: 918f 2f3e 5379 a6bd 121e 433e 110e 7e3d
00000370: b867 4b3e 8869 c53c 2ec1 ddbe 8a02 88bc
00000380: 9ac0 663e 730c ebbd ba4e c0bc 5497 463e
00000390: 9172 e4be ccec fd3d 322e b63d 6f39 38be
000003a0: fa27 abbe e57a 323d ba19 0bbe 8ee6 2f3d
000003b0: 616c 43be d4e2 e23d 39cf 07be 3b8a d13d
000003c0: 628d 33be 3e29 44be 2a7f 76bd ffb1 c2bc
000003d0: d342 afbc af57 aebe ca32 14be 3ccc 80be
000003e0: 359e 663d ab87 2d3e b9b3 1a3e 1ef0 d53a
000003f0: b681 04bf 8896 fcbe 52ea 67be 6d67 0abf

out_layer.weight f4 [1, 64]
0.10599087 0.1230412 0.06686309 0.06943819 -0.01683285 -0.0037397894 -0.048066 0.10218358
-0.07392479 0.05001589 -0.0036503996 0.050293636 -0.046525493 0.06196551 -0.06503018 0.053126913
0.14214312 -0.013758334 0.05785017 0.08675758 0.038415417 -0.050182138 -0.0002687111 0.026015045
-0.02701206 0.071954735 -0.041217808 -0.009641753 -0.045017388 -0.060946696 -0.033495866 -0.06705926
-0.079263106 0.002849715 -0.10351326 -0.072291896 -0.033083834 -0.0597023 -0.0130412225 0.04449975
0.08358596 -0.05327468 0.0824867 0.07360734 0.035652407 -0.027592706 -0.009282646 0.048609722
0.043040417 0.032144286 0.068699986 -0.038613282 0.0038632292 -0.04332291 0.051059302 -0.10548894
0.022841671 -0.07853513 0.2015714 0.03752294 0.034527157 -0.065952 -0.090126455 0.0025549983
00000000: be11 d93d 06fd fb3d 84ef 883d 9c35 8e3d
00000010: 0ce5 89bc 4117 75bb dbe0 44bd a045 d13d
00000020: e165 97bd 76dd 4c3d 8b3b 6fbb b300 4e3d
00000030: 8491 3ebd 8ccf 7d3d 8b2e 85bd 9b9b 593d
00000040: f78d 113e a36a 61bc 4df4 6c3d f5ad b13d
00000050: 7c59 1d3d c98b 4dbd cbe1 8cb9 811d d53c
00000060: 6548 ddbc 015d 933d 01d4 28bd 71f8 1dbc
00000070: 2764 38bd 3ea3 79bd f632 09bd 5e56 89bd
00000080: b254 a2bd 49c2 3a3b c3fe d3bd c60d 94bd
00000090: ea82 07bd 668a 74bd daaa 55bc 5f45 363d
000000a0: 1e2f ab3d 8d36 5abd c9ee a83d 72bf 963d
000000b0: 4208 123d 190a e2bc 3d16 18bc fd1a 473d
000000c0: 264b 303d baa9 033d 94b2 8c3d f628 1ebd
000000d0: 3b2e 7d3b 5d73 31bd 8f23 513d 960a d8bd
000000e0: 751e bb3c 07d7 a0bd bc68 4e3e a8b1 193d
000000f0: 596c 0d3d d811 87bd 3894 b8bd c271 273b
